…
d = True              def forward(self, inputs):         ids, mask, token_type_ids = inputs['ids'], inputs['mask'], inputs['token_type_ids']         # print(ids.size(), mask.size(), token_type_ids.size())         x = self.bert_module(ids, mask, token_type_ids)         x = self.dropout(x['pooler_output'])         out = self.final(x)         return out In\u00a0[45]: Copied! <pre>bert_model = SentimentBERT(model)\nprint(bert_model)\n</pre> bert_model = SentimentBERT(model) print(bert_model) <pre>SentimentBERT(\n  (bert_module): BertModel(\n    (embeddings): BertEmbeddings(\n      (word_embeddings): Embedding(30522, 128, padding_idx=0)\n      (position_embeddings): Embedding(512, 128)\n      (token_type_embeddings): Embedding(2, 128)\n      (LayerNorm): LayerNorm((128,), eps=1e-12, elementwise_affine=True)\n      (dropout): Dropout(p=0.1, inplace=False)\n    )\n    (encoder): BertEncoder(\n      (layer): ModuleList(\n        (0-1): 2 x BertLayer(\n          (attention): BertAttention(\n            (self): BertSelfAttention(\n              (query): Linear(in_features=128, out_features=128, bias=True)\n              (key): Linear(in_features=128, out_features=128, bias=True)\n              (value): Linear(in_features=128, out_features=128, bias=True)\n              (dropout): Dropout(p=0.1, inplace=False)\n            )\n            (output): BertSelfOutput(\n              (dense): Linear(in_features=128, out_features=128, bias=True)\n              (LayerNorm): LayerNorm((128,), eps=1e-12, elementwise_affine=True)\n              (dropout): Dropout(p=0.1, inplace=False)\n            )\n          )\n          (intermediate): BertIntermediate(\n            (dense): Linear(in_features=128, out_features=512, bias=True)\n            (intermediate_act_fn): GELUActivation()\n          )\n          (output): BertOutput(\n            (dense): Linear(in_features=512, out_features=128, bias=True)\n            (LayerNorm): LayerNorm((128,), eps=1e-12, elementwise_affine=True)\n            (dropout): Dropout(p=0.1, inplace=False)\n          )\n        )\n      )\n    )\n    (pooler): BertPooler(\n      (dense): Linear(in_features=128, out_features=128, bias=True)\n      (activation): Tanh()\n    )\n  )\n  (dropout): Dropout(p=0.1, inplace=False)\n  (final): Linear(in_features=128, out_features=4, bias=True)\n)\n</pre> In\u00a0[46]: Copied! <pre>total_parameters = sum([np.prod(p.size()) for p in bert_model.parameters()])\nmodel_parameters = filter(lambda p: p.requires_grad, bert_model.parameters())\nparams = sum([np.prod(p.size()) for p in model_parameters])\nprint(f\"Total params : {total_parameters} - Trainable : {params} ({params/total_parameters*100}% of
…
th blob.open(\"rb\") as f:\n    loaded_model.load_state_dict(torch.load(f, map_location=torch.device('cpu')))\n    \nloaded_model.eval()\n</pre> from google.cloud import storage  storage_client = storage.Client() bucket = storage_client.bucket(\"csb-sentiment-analysis\") blob = bucket.blob(\"model/model.pt\") loaded_model = SentimentBERT(model)  with blob.open(\"rb\") as f:     loaded_model.load_state_dict(torch.load(f, map_location=torch.device('cpu')))      loaded_model.eval()  Out[9]: <pre>SentimentBERT(\n  (bert_module): BertModel(\n    (embeddings): BertEmbeddings(\n      (word_embeddings): Embedding(30522, 128, padding_idx=0)\n      (position_embeddings): Embedding(512, 128)\n      (token_type_embeddings): Embedding(2, 128)\n      (LayerNorm): LayerNorm((128,), eps=1e-12, elementwise_affine=True)\n      (dropout): Dropout(p=0.1, inplace=False)\n    )\n    (encoder): BertEncoder(\n      (layer): ModuleList(\n        (0-1): 2 x BertLayer(\n          (attention): BertAttention(\n            (self): BertSelfAttention(\n              (query): Linear(in_features=128, out_features=128, bias=True)\n              (key): Linear(in_features=128, out_features=128, bias=True)\n              (value): Linear(in_features=128, out_features=128, bias=True)\n              (dropout): Dropout(p=0.1, inplace=False)\n            )\n            (output): BertSelfOutput(\n              (dense): Linear(in_features=128, out_features=128, bias=True)\n              (LayerNorm): LayerNorm((128,), eps=1e-12, elementwise_affine=True)\n              (dropout): Dropout(p=0.1, inplace=False)\n            )\n          )\n          (intermediate): BertIntermediate(\n            (dense): Linear(in_features=128, out_features=512, bias=True)\n            (intermediate_act_fn): GELUActivation()\n          )\n          (output): BertOutput(\n            (dense): Linear(in_features=512, out_features=128, bias=True)\n            (LayerNorm): LayerNorm((128,), eps=1e-12, elementwise_affine=True)\n            (dropout): Dropout(p=0.1, inplace=False)\n          )\n        )\n      )\n    )\n    (pooler): BertPooler(\n      (dense): Linear(in_features=128, out_features=128, bias=True)\n      (activation): Tanh()\n    )\n  )\n  (dropout): Dropout(p=0.1, inplace=False)\n  (final): Linear(in_features=128, out_features=3, bias=True)\n)</pre> In\u00a0[33]: Copied! <pre>def sentiment_score(comment):\n    mapping = {0: 'Negative', 1: 'Neutral', 2: 'Positive'}\n    inputs = tokenizer(comment, return_tensors='pt')\n    ids = inputs[\"input_ids\"]\n    token_type_ids = inputs[\"token_type_ids\"]\n    mask = inputs[\"attention_mask\"]\n\n    x = {\n        'ids': ids,\n        'mask': mask
…
